data.pth (torch, 19583 bytes, 6 tensors)

l1.weight f4 [8, 282]
0	0x3d33887d	0.043831337
1	0xbe998772	-0.2998615
2	0x3ee5baab	0.4486898
3	0xbaafa777	-0.0013401349
4	0xbed628cb	-0.41827998
5	0x3e8a855e	0.27054876
6	0x3f159c92	0.5844203
7	0xbf818970	-1.0120068
8	0x3ea9965d	0.3312253
9	0x3fd07097	1.628436
10	0x3f18a672	0.59628975
11	0x3db5616a	0.08856471
12	0x3d5549ee	0.052072458
13	0x3ebaaa4c	0.3645805
14	0x3f78978c	0.9710624
15	0x3d749f05	0.059721965
16	0xbf993a6e	-1.1970956
17	0xbf9ebb9c	-1.2401004
18	0xbc4efeae	-0.012633963
19	0x3fbe7bf0	1.4881573
20	0x3e980ce9	0.2969735
21	0xbf20d46a	-0.6282412
22	0xbf6e04c3	-0.92976016
23	0x3f20e45b	0.6284844
24	0xbfaa0763	-1.3283504
25	0x3d738215	0.059450228
26	0x3e851070	0.25989103
27	0x3fddaacd	1.7317749
28	0xbf6ebdab	-0.9325816
29	0x3f65d450	0.8977709
30	0xbf75c983	-0.9601061
31	0xbf82ec00	-1.0228271
32	0xbed0880e	-0.407288
33	0x3f213527	0.6297173
34	0xbe7548be	-0.2395353
35	0x3eeb1758	0.45916247
36	0x3ec8a961	0.39191726
37	0xbd2c6ba6	-0.04209485
38	0xbf2a797d	-0.66591626
39	0x3f76dea0	0.9643345
40	0x3f79ec6e	0.9762639
41	0xbed5236b	-0.41628584
42	0x3eca655b	0.39530453
43	0xbdd9b485	-0.106301345
44	0xbf011af8	-0.50431776
45	0x3fdafa4a	1.7107632
46	0x3fec452c	1.845861
47	0xbde55710	-0.111982465
48	0x3f508fc5	0.81469375
49	0xbeaa6754	-0.33281958
50	0x3f34f267	0.70682377
51	0x3e85b86f	0.26117274
52	0xbe4703d1	-0.1943505
53	0x3f5ca84d	0.86194307
54	0xbec4df4f	-0.3845162
55	0x3d1153f0	0.03548044
56	0x3d017d5a	0.031613685
57	0xbc2593c7	-0.010106034
58	0xbe3f8688	-0.18703663
59	0x3fb0c69f	1.3810614
60	0xbf8ec8d1	-1.1155034
61	0xbd0d363a	-0.034475543
62	0x3dfd5761	0.12370182
63	0x3eaff862	0.3436919
64	0x3fff304e	1.9936616
65	0x3e3e9793	0.18612508
66	0xbedb5da6	-0.42844886
67	0x3ea45baa	0.32101184
68	0xbf6b910a	-0.9201819
69	0xbf155a21	-0.5834065
70	0x3af5db7f	0.0018757432
71	0x3ee98011	0.4560552
72	0x3ffcee36	1.9760196
73	0x3f06f7b5	0.5272172
74	0x3f819b62	1.0125544
75	0xbcc042d0	-0.023469359
76	0x3f0a0475	0.5391305
77	0x3eb78757	0.35845444
78	0xbf416391	-0.7554255
79	0x3fac940c	1.348268
80	0x3f00a56c	0.50252414
81	0x3f5edc2e	0.8705472
82	0x3f2692b3	0.65067595
83	0xbec1d66e	-0.3785891
84	0xbcaa3498	-0.020777032
85	0x3f6e8d5b	0.9318444
86	0x3f53b5e8	0.8269944
87	0x3f94bab4	1.1619477
88	0x3dbdb6bc	0.092633694
89	0xbe50f29e	-0.20405051
90	0x3f05fc42	0.5233804
91	0x3e5e028a	0.21680656
92	0xbf4c8224	-0.7988608
93	0x3f66efe4	0.90209794
94	0xbea6356f	-0.32462642
95	0x3e3ab1a2	0.18231824
96	0x3f4d47c1	0.8018761
97	0x3fdc5bc1	1.7215501
98	0x3ef684f6	0.48148316
99	0x3f8221bf	1.0166548
100	0x3fe2fda7	1.7733659
101	0x3f225a5b	0.6341912
102	0xbb425dbd	-0.0029657923
103	0xbec6699e	-0.38752455
104	0x3ee43057	0.4456813
105	0x3f9d405f	1.228527
106	0xbfaf0071	-1.367201
107	0x3fbdc3cb	1.4825376
108	0x3f743006	0.9538578
109	0xbf3e27c8	-0.7427945
110	0x3f84aad9	1.0364639
111	0x3f8567e0	1.0422325
112	0x3f261ead	0.6489056
113	0x3f72d33e	0.9485358
114	0x3f06fe8e	0.5273217
115	0x3f749e8b	0.9555442
116	0x3b840388	0.0040287413
117	0x3ec079a9	0.3759282
118	0x3f9fbae9	1.2478915
119	0xbddc92b1	-0.10770167
120	0xbe34dbf1	-0.17662026
121	0xbe247c19	-0.16062964
122	0xbf23d929	-0.64003235
123	0x3ce9f1f1	0.02855775
124	0x3ee9a061	0.45630172
125	0x3fab299c	1.3372073
126	0xbf3b2652	-0.7310535
127	0xbfc7f185	-1.5620581
128	0x3e9ac28b	0.3022655
129	0x3fab12bc	1.3365092
130	0xbf1766c3	-0.59141177
131	0x3f8462bd	1.0342633
132	0x3f804b29	1.0022937
133	0x3ec157af	0.3776221
134	0x3ea703b1	0.32620004
135	0x3e82aafb	0.25521073
136	0xbea69d67	-0.32541963
137	0x3de84c30	0.113426566
138	0x3faea28e	1.3643358
139	0xbe12e23b	-0.14344113
140	0x3ffb1461	1.9615594
141	0xbf3c702c	-0.7360866
142	0x3d7a60bd	0.061127413
143	0x3f0dc2d2	0.553754
144	0xbe92c012	-0.28662163
145	0x3f166d62	0.58760655
146	0xbf47ff79	-0.78124195
147	0x3d410c5e	0.047130935
148	0x3ff5209d	1.9150578
149	0x3f35b708	0.7098241
150	0xbdd84659	-0.10560293
151	0x3f5e22e4	0.8677199
152	0x3e57e8ba	0.21084872
153	0x3d9a9cf2	0.07549466
154	0x3e9b0a88	0.30281472
155	0xbf76f70f	-0.9647073
156	0x3e85c554	0.26127112
157	0x3ed396f1	0.41326097
158	0x3f5cd7c3	0.86266726
159	0x3f289e92	0.6586696
160	0x3eae464a	0.34038
161	0x3fa8b045	1.3178793
162	0xbd9a92f3	-0.075475596
163	0x3fb23d61	1.3924981
164	0x3fa09170	1.2544384
165	0x3ed60ecd	0.41808167
166	0xbf03aeda	-0.5143868
167	0xbe130acf	-0.14359592
168	0x3f1b4e4c	0.60666347
169	0x3f747b38	0.95500517
170	0x3f7d490a	0.98939574
171	0x3fa189f9	1.2620231
172	0x3f772103	0.96534747
173	0x3c575dea	0.013144949
174	0xbf9f3e6e	-1.2440927
175	0x3ec171ba	0.3778208
176	0xbf73b19d	-0.9519289
177	0x3f5362a1	0.8257237
178	0xbe87f01c	-0.26550376
179	0xbf20d6a5	-0.6282752
180	0xbd462427	-0.04837432
181	0x3f0516e6	0.51988065
182	0x3f3390d5	0.7014287
183	0x3f21aca7	0.6315407
184	0x3d509988	0.05092767
185	0x3eaa7398	0.33291316
186	0xbef53470	-0.4789157
187	0x3d8cb158	0.06869763
188	0x3e091df2	0.1339033
189	0x3faa6f80	1.3315277
190	0x3d05d6bb	0.032675486
191	0x3e0e25cf	0.1388161
192	0x3ef97469	0.48721626
193	0x3e3cb4eb	0.1842839
194	0x3f6c30b8	0.9226184
195	0xbf29b067	-0.66284794
196	0x3fc0f5a2	1.5074961
197	0x3f760220	0.9609699
198	0xbf1da538	-0.6158023
199	0x3efdd3c9	0.49575642
200	0x3f8559d1	1.0418035
201	0x3ec298dc	0.38007247
202	0x3f985399	1.1900512
203	0x3fdc1aee	1.7195718
204	0xbf303b15	-0.6884015
205	0x3f79f64c	0.97641444
206	0xbe2a7d88	-0.16649449
207	0x3f217756	0.6307272
208	0x3f7256d2	0.9466373
209	0x3e0b20c7	0.13586722
210	0xbe97d8e6	-0.29657668
211	0x3f9097d0	1.129633
212	0xbf67710b	-0.90406865
213	0x3ea89ea1	0.32933524
214	0xbf76cb8b	-0.9640433
215	0x3d55352f	0.052052673
216	0x3ecec2b1	0.40382913
217	0xbe9b8fbf	-0.30383107
218	0xbe19a331	-0.15003659
219	0xbdf9c146	-0.12195067
220	0x3eb60b98	0.3555572
221	0x3ece293f	0.40265843
222	0xbee87977	-0.4540517
223	0xbf43ce7d	-0.7648695
224	0xbf927632	-1.144232
225	0x3f6ff198	0.9372802
226	0x3d92cba1	0.071677454
227	0xbea828d3	-0.32843646
228	0xbf614122	-0.8799001
229	0xbe378afc	-0.17924112
230	0x3f9fe600	1.2492065
231	0x3f18cc47	0.596867
232	0x3f0be0af	0.54639715
233	0xbed613c9	-0.4181197
234	0x3f677739	0.90416294
235	0xbf92dfde	-1.1474569
236	0xbf9c8d28	-1.2230577
237	0x3e4a1c5c	0.1973738
238	0xbea86013	-0.328858
239	0x3f2bea05	0.6715396
240	0x3f00a094	0.5024502
241	0x3fc0a2dc	1.5049701
242	0x3f636da2	0.8883916
243	0x3f958f46	1.1684349
244	0xbea2ad3c	-0.31772792
245	0xbf0e3f02	-0.5556489
246	0xbf0a8152	-0.5410358
247	0x3f111c30	0.56683636
248	0xbf0f4d5d	-0.5597742
249	0x3ed1eddb	0.41001782
250	0x3f493f78	0.7861247
251	0xbf04b498	-0.51838064
252	0xbe047d27	-0.12938367
253	0x3f3c7b02	0.73625195
254	0x3f79cd89	0.97579247
255	0x3efea17a	0.49732572

l1.bias f4 [8]
0	0x3fc4f95a	1.5388596
1	0x3f032d86	0.5124134
2	0x3f38a5c8	0.7212796
3	0x3fcb2f77	1.587386
4	0x3f671f5f	0.90282243
5	0x3fb0ee27	1.3822678
6	0x3f5daccb	0.86591786
7	0x3f93dba3	1.1551403

l2.weight f4 [8, 8]
0	0x40197b43	2.3981483
1	0x3f65111d	0.8947924
2	0xc010e46a	-2.2639413
3	0x3f966c62	1.1751826
4	0xbfb1ef69	-1.3901187
5	0xbec568af	-0.3855643
6	0x3f6b707e	0.91968524
7	0xbf7dad76	-0.99092805
8	0x3f830c61	1.0238153
9	0x3f116a5d	0.5680292
10	0x3e1e8dee	0.1548383
11	0x3fdafaac	1.7107749
12	0xbfd61b71	-1.6727124
13	0x3e31bd50	0.17357373
14	0xbfb1aae6	-1.3880279
15	0x401cf238	2.4522839
16	0x401b5449	2.4270194
17	0x4031b6f5	2.7767918
18	0xbfa5d88c	-1.295671
19	0x3f976941	1.1828996
20	0x402d9423	2.7121665
21	0x3d93b6dc	0.07212612
22	0x3ef559af	0.47919986
23	0xbfc93143	-1.5718158
24	0xbfd5b7eb	-1.6696752
25	0x3e03fb92	0.12888935
26	0xbf8493f7	-1.0357655
27	0x3fe15a3f	1.7605666
28	0x3f925383	1.1431736
29	0x40c3e452	6.121621
30	0x3f8ece39	1.1156684
31	0xbf11b5d0	-0.5691805
32	0x3dd24936	0.1026787
33	0xbe9c63e2	-0.30544955
34	0xbfdb7117	-1.7143887
35	0x3fb3945e	1.4029653
36	0xbffffbc6	-1.999871
37	0x3f6fb4f0	0.93635464
38	0x3fdb9301	1.7154237
39	0x3f6488b1	0.89271075
40	0xbf5be10f	-0.8589029
41	0xbe156a7b	-0.145914
42	0x4038e7ca	2.8891473
43	0x3eb80877	0.35943958
44	0x3e7cc7e1	0.24685623
45	0x3ff99981	1.9499971
46	0x400d4751	2.2074778
47	0x3f824e6b	1.0180181
48	0x3fe11d96	1.7587154
49	0xc01d615f	-2.459068
50	0x3f9174be	1.1363752
51	0xbd6287b6	-0.055305205
52	0xbe24f0cf	-0.16107486
53	0xbf980ff9	-1.1879874
54	0x402cf75d	2.7025979
55	0x400ea550	2.2288399
56	0x3ed746c9	0.42046192
57	0xbfeea1f5	-1.8643175
58	0x3e778ebd	0.24175544
59	0x3fb2a2f0	1.3955975
60	0x401ec668	2.4808598
61	0x40091d59	2.1424162
62	0xbfddd41c	-1.7330356
63	0x3fc71477	1.555312

l2.bias f4 [8]
0	0x3e452e49	0.19255938
1	0x3f254076	0.64551485
2	0x3f670a5c	0.9025018
3	0xbda763ac	-0.08173308
4	0x3f5240a5	0.8212989
5	0xbe718ec6	-0.2358962
6	0x3f7dfb28	0.9921136
7	0x3f46effa	0.77709925

l3.weight f4 [79, 8]
0	0xc018d900	-2.3882446
1	0x3ed980f1	0.42481187
2	0xbf9cc950	-1.2248936
3	0xbe39df8c	-0.18151683
4	0xbe399dcb	-0.181266
5	0x3ea11cea	0.31467372
6	0xc025c1e5	-2.5899594
7	0xbc695648	-0.014241762
8	0x3f28562a	0.65756476
9	0x3ee30fc6	0.44347972
10	0x3ea97b95	0.33102098
11	0xbfaa2c1a	-1.3294709
12	0x3eb5c591	0.35502294
13	0xc06adc0c	-3.6696806
14	0xbee8cab6	-0.45467156
15	0xbec343ba	-0.3813761
16	0xc029cdc8	-2.653185
17	0xbd13efa8	-0.036117226
18	0x3f212aa2	0.6295568
19	0xc09422c0	-4.629242
20	0xbfb5c5f4	-1.4201035
21	0xbe1640df	-0.14673184
22	0x3dd18c3f	0.10231828
23	0x3e146435	0.14491351
24	0xc07d3c3d	-3.9568017
25	0xbefda2eb	-0.4953836
26	0xbfb0671a	-1.3781464
27	0x3eea203e	0.45727724
28	0x3f009ea7	0.50242084
29	0x3e107eae	0.14110824
30	0xbf19b855	-0.60046893
31	0xbfb630b9	-1.4233619
32	0xc074f265	-3.8272946
33	0xbf435c46	-0.76312673
34	0xbf3c3e13	-0.7353222
35	0xbe6816ac	-0.22664899
36	0xbf38eac0	-0.722332
37	0x3e1b3360	0.15156317
38	0x3eaee2c3	0.3415738
39	0xbe169ba8	-0.14707816
40	0x3ec10ef6	0.37706727
41	0x3e5ac58e	0.21364424
42	0xbe9c97f4	-0.3058468
43	0xbfc77597	-1.558276
44	0x3ef0a0b8	0.4699762
45	0xbede94af	-0.43472812
46	0x3f020c7e	0.5080031
47	0xbf71ee90	-0.9450464
48	0x3eb86845	0.3601705
49	0xc085d7e1	-4.1826024
50	0x3f1ee3e8	0.6206651
51	0xc013a9e1	-2.3072436
52	0xbfa98c87	-1.324601
53	0xbf4592a8	-0.77176905
54	0x3ecf64be	0.40506548
55	0xbe486514	-0.19569808
56	0xbe3291bf	-0.1743841
57	0xbf4620ef	-0.77394
58	0xbeccb8fa	-0.39984876
59	0x3e26b546	0.16280088
60	0x3df647a4	0.12025383
61	0xbd881efb	-0.06646534
62	0xc04f3df7	-3.238157
63	0xbf5be1c5	-0.8589137
64	0x3f10c943	0.565571
65	0xbc60cefb	-0.013721223
66	0x3c66d772	0.014089452
67	0x3d19e39e	0.03757059
68	0x3f072987	0.5279774
69	0xbf8d89c2	-1.1057665
70	0xbfb8cff0	-1.4438457
71	0xc0765300	-3.848816
72	0xbf14d1f7	-0.5813288
73	0x3f6f0a31	0.93374926
74	0xbecf7618	-0.40519786
75	0xc02e38bd	-2.722213
76	0xc0312391	-2.7677958
77	0xbf856418	-1.0421171
78	0x3e97c52b	0.29642615
79	0x3f4d6cca	0.80244124
80	0xbf9642df	-1.1739157
81	0xbf9c22d8	-1.2198133
82	0x3e557491	0.20845248
83	0x3e8b195d	0.27167788
84	0xc01fec1b	-2.4987857
85	0xbde428e3	-0.11140611
86	0xc0431d27	-3.0486543
87	0xbd309bdb	-0.043117385
88	0xbfe950c2	-1.822777
89	0xc071206e	-3.7676044
90	0xc035f42f	-2.8430288
91	0x3f0063e1	0.50152403
92	0x3f29b3e3	0.6629011
93	0x3e16978c	0.14706248
94	0x3f143c8c	0.5790489
95	0xc003f994	-2.062108
96	0x3dd6d471	0.10489739
97	0x3f7e328b	0.9929587
98	0xbf2c33ab	-0.6726634
99	0xc023d7e6	-2.5600524
100	0x3f060e68	0.5236573
101	0xc067cc7b	-3.6218555
102	0x3e3a1978	0.18173778
103	0x3f8b2950	1.0871983
104	0xc07a6a56	-3.9127402
105	0xbf386b30	-0.72038555
106	0xbf66cc71	-0.901557
107	0x3e0bfc56	0.13670477
108	0x3e366db3	0.17815284
109	0xbe5b76c7	-0.21432029
110	0xbf6b2627	-0.9185509
111	0x3eafbc4d	0.3432335
112	0xbf1e0c33	-0.61737365
113	0xbf57847e	-0.8418654
114	0xbcdb917b	-0.026802769
115	0xbcf373cc	-0.029718302
116	0xc05a79a3	-3.413674
117	0xbfa80bb0	-1.3128567
118	0xbf092259	-0.53568035
119	0x3f7638c7	0.96180385
120	0xc01bf4d3	-2.436818
121	0xc032067e	-2.7816463
122	0xbf1c58ff	-0.610733
123	0x3ecdc719	0.40190962
124	0xbf9c9940	-1.2234268
125	0x3e95377d	0.29143897
126	0xc05735e5	-3.3626645
127	0x3f11f5d9	0.5701576
128	0x3f2aba96	0.6669096
129	0xc02efd1c	-2.7341986
130	0x3f292783	0.66075915
131	0xbe7fd3bc	-0.24983114
132	0xbf2c8fb8	-0.674068
133	0xc078a438	-3.885023
134	0xbffea238	-1.9893255
135	0x3e9c1fda	0.3049305
136	0xbfb333e1	-1.4000207
137	0xc06de666	-3.7171874
138	0xbe7029f6	-0.23453507
139	0x3f283b52	0.65715516
140	0x3ec33e0e	0.3813328
141	0xbf2feeda	-0.68723834
142	0xc07f20f0	-3.9863853
143	0x3d6c0183	0.05761863
144	0xbffc2606	-1.9699104
145	0x3c986f83	0.01860786
146	0xc00c3372	-2.19064
147	0xbf9a9562	-1.2076838
148	0xbe442248	-0.19153702
149	0x3f47b86d	0.78015786
150	0x3f8991ba	1.0747597
151	0xc0196e21	-2.3973467
152	0xc05d4c4a	-3.4577813
153	0xc0975f52	-4.730386
154	0x3ecbbd6e	0.3979296
155	0x3ea50f89	0.32238415
156	0xbff0f872	-1.882582
157	0xbf1170b9	-0.56812626
158	0xbf322e9e	-0.6960238
159	0x3f230260	0.636755
160	0xbfd9bb7f	-1.7010344
161	0xbf7304da	-0.9492928
162	0xbe27636b	-0.16346519
163	0xbf848a22	-1.0354655
164	0xbfd972a0	-1.6988106
165	0x3eaab8de	0.33344167
166	0x3f01f423	0.5076315
167	0xbf487be9	-0.7831407
168	0xbe486a8f	-0.19571899
169	0xbf18cd41	-0.5968819
170	0xbf4802ab	-0.7812907
171	0x3e9a337a	0.30117399
172	0x3eac3a55	0.33638254
173	0x3e4a1d94	0.19737846
174	0xbfaf2eab	-1.3686117
175	0xc03fee0a	-2.9989038
176	0x3f7666e2	0.96250737
177	0xbe2aee23	-0.16692404
178	0x3effc922	0.4995814
179	0xbf9b5f7d	-1.2138516
180	0x3f4fcc96	0.8117155
181	0xc0070fd7	-2.1103418
182	0x3d82a03e	0.0637822
183	0xc08b38ef	-4.3507
184	0xbf8713ff	-1.0552977
185	0x3e832819	0.2561653
186	0xc01152e3	-2.270684
187	0xc0ab32ce	-5.3499517
188	0xbda5fc08	-0.08104712
189	0xbe427710	-0.18990731
190	0x3f7c88ee	0.9864644
191	0x3f8b5d83	1.0887913
192	0xbf106e2f	-0.56418127
193	0xbd7308c4	-0.05933453
194	0xc02bae32	-2.682507
195	0xbefa4667	-0.48881838
196	0x3ece85e1	0.40336516
197	0xbb30e0ad	-0.0026989386
198	0x3f13e9e9	0.57778794
199	0xbd96a4a6	-0.07355623
200	0x3e0e1671	0.13875748
201	0x3db25fd9	0.08709688
202	0x3e981ae4	0.29708016
203	0xbe0a3d79	-0.13500012
204	0xbeba2213	-0.36354122
205	0xbf93f0a1	-1.1557809
206	0xc00b8379	-2.1798995
207	0xbf6d42f3	-0.9268028
208	0x3df4c9d1	0.11952556
209	0xbf4a7b2e	-0.7909421
210	0x3ea61a87	0.32442114
211	0xbe65962e	-0.2242057
212	0xbea07ae0	-0.31343746
213	0xbf031de6	-0.51217496
214	0xbe904d90	-0.28184175
215	0xbfee976a	-1.8639958
216	0xbf9999bf	-1.2000045
217	0x3eec45e6	0.46147078
218	0xbef178dd	-0.47162524
219	0x3e55d269	0.20881046
220	0xbf905967	-1.1277283
221	0xbf96e840	-1.1789627
222	0xbff6f3e1	-1.9293176
223	0x3f4069e5	0.7516158
224	0xbedbb064	-0.42908013
225	0xc0510ea4	-3.2665186
226	0x3ef5a1c5	0.47974983
227	0xbf8a7081	-1.0815583
228	0xbeeb085f	-0.45904824
229	0xc02b010e	-2.6719394
230	0xbd9276e9	-0.071515866
231	0x3f849681	1.035843
232	0x3d950133	0.07275619
233	0xbfeaa2ab	-1.8330892
234	0x3f062dae	0.5241345
235	0x3e78db02	0.24302295
236	0xbfc2e460	-1.5225945
237	0xbf93a7ec	-1.1535621
238	0xc02a660e	-2.662479
239	0xbf43d3b9	-0.7649494
240	0xbf42e404	-0.76129174
241	0x3f938d8e	1.1527574
242	0xbf93b802	-1.154053
243	0xbfb3592a	-1.4011586
244	0xbe65c7d9	-0.22439517
245	0xbd7667b7	-0.060157504
246	0xbf079cc9	-0.5297361
247	0xbe381e2f	-0.17980264
248	0x3f88e2f4	1.0694261
249	0xc013cb1f	-2.3092725
250	0x3f8d8755	1.1056925
251	0xbf32d865	-0.6986144
252	0xbed70caf	-0.42001864
253	0xc01417dd	-2.3139565
254	0xc01a4de5	-2.4110043
255	0xc04e53c7	-3.2238634

l3.bias f4 [79]
0	0x3e27444b	0.16334645
1	0xbf1d641c	-0.6148088
2	0x3efede4d	0.49778977
3	0x3d588b0f	0.05286699
4	0xbf12a117	-0.57277054
5	0x3e37e8f7	0.17959963
6	0x3e58eece	0.21184847
7	0xbea826c9	-0.3284209
8	0xbdf0407b	-0.11731049
9	0xbe86af34	-0.26305544
10	0xbe5d07cd	-0.21585007
11	0x3f269319	0.65068203
12	0x3efad93f	0.4899387
13	0xbdae3414	-0.08506027
14	0xbe00ea44	-0.12589365
15	0x3e7a95b3	0.24471168
16	0x3efc87d4	0.4932238
17	0x3c9f32b5	0.019433359
18	0x3ecc5747	0.39910337
19	0x3e83364c	0.25627363
20	0xbf2816fb	-0.65660065
21	0x3e1876ae	0.14889023
22	0xbe216499	-0.15761031
23	0x3e18ae00	0.14910126
24	0xbe4298af	-0.19003557
25	0x3d1561ee	0.036470346
26	0xbea5d5ce	-0.32389683
27	0xbf2c8702	-0.67393506
28	0x3ecf5452	0.4049402
29	0xbcdf248f	-0.027239112
30	0xbee29459	-0.44253805
31	0x3e075ede	0.13219783
32	0x3ecd8c66	0.40146178
33	0xbe949b8a	-0.29024917
34	0xbf5086f5	-0.8145593
35	0xbe13759e	-0.14400336
36	0xbec6f9f6	-0.3886258
37	0x3ece2c3c	0.40268123
38	0xbe600e8f	-0.21880554
39	0x3f00366f	0.5008306
40	0xbe80aaed	-0.25130406
41	0xbf22c9b2	-0.6358901
42	0xbe856038	-0.26049972
43	0xbf6d46df	-0.92686266
44	0x3d270df3	0.040784787
45	0xbeba5c4a	-0.36398536
46	0x3d8a6569	0.06757624
47	0x3d3fa7ff	0.046791073
48	0x3e282b31	0.16422726
49	0x3f6768e1	0.9039441
50	0xbf40ab14	-0.75261045
51	0xbeb2732b	-0.3485349
52	0xbe244fcf	-0.1604607
53	0xbf24b159	-0.6433311
54	0xbed56e65	-0.41685787
55	0x3d87e665	0.06635741
56	0xbf4b5255	-0.79422504
57	0xbf0ecf8c	-0.5578544
58	0xbd8e7e1a	-0.06957646
59	0xbe41d6b2	-0.18929556
60	0xbd5e0a82	-0.05420924
61	0x3f29a510	0.6626749
62	0xbeeb73c7	-0.4598677
63	0x3f08c690	0.5342798
64	0x3dd840db	0.10559245
65	0xbebeb260	-0.37245464
66	0x3e07298b	0.13199441
67	0x3e0140b5	0.1262234
68	0xbec3f9f9	-0.38276652
69	0xbef09c7f	-0.46994397
70	0xbe9744d8	-0.2954471
71	0xbde10f9e	-0.10989307
72	0xbf48c571	-0.7842627
73	0x3ec56c87	0.38559362
74	0xbebfe41a	-0.37478715
75	0x3d1c036a	0.038089193
76	0xbf018761	-0.50597197
77	0x3dc67131	0.09689558
78	0xbe8f1ae2	-0.27950197
