data.pth (torch, 4991 bytes, 6 tensors)

l1.weight f4 [8, 53]
0	0x3ed994d9	0.42496374
1	0x3f259975	0.6468728
2	0xbed16e11	-0.40904287
3	0xbf0f8463	-0.5606138
4	0xbe6df6b0	-0.23238635
5	0xbf274f46	-0.65355337
6	0x3f5aab73	0.8541786
7	0xbccfee8f	-0.025382308
8	0xbeaaf5e5	-0.33390728
9	0x3f147321	0.5798817
10	0xbdbec87d	-0.09315584
11	0x3e0b0d4c	0.13579291
12	0x3ebe5c2b	0.37179694
13	0x3f0b791c	0.54481673
14	0xbea69f64	-0.3254348
15	0x3f554a63	0.8331663
16	0xbd17f18a	-0.037095584
17	0xbf180112	-0.59376633
18	0x3ece6f9b	0.40319523
19	0x3eddd0e6	0.4332344
20	0xbf2dbe8b	-0.6786887
21	0xbf0ec7f4	-0.55773854
22	0xbede222a	-0.4338544
23	0x3da7320e	0.08163844
24	0x3c6799e7	0.014135814
25	0x3db79c45	0.08965353
26	0x3f4326d3	0.76231116
27	0x3ef72008	0.48266625
28	0x3f081470	0.53156185
29	0x3ecc64a1	0.39920524
30	0x3db99484	0.0906153
31	0x3cab0ead	0.020881021
32	0x3e37ca6d	0.17948313
33	0xbdd98a2a	-0.10622056
34	0xbde5c487	-0.11219125
35	0xbeb16584	-0.34647763
36	0xbdfc777f	-0.123274796
37	0xbf378be3	-0.71697825
38	0x3eddc2b5	0.43312612
39	0x3e1c5101	0.15265276
40	0x3f1df5bb	0.6170308
41	0x3ab0a62a	0.0013477255
42	0x3e993349	0.2992194
43	0x3f5f25a3	0.87166804
44	0x3f171216	0.5901197
45	0xbed140d1	-0.40869763
46	0xbe3388bf	-0.17532633
47	0xbea3cfca	-0.31994468
48	0xbf05e724	-0.5230582
49	0x3e0a0b8f	0.13480972
50	0xbe8df418	-0.2772529
51	0x3ee85459	0.45376852
52	0xbda4fa32	-0.080555335
53	0x3f1e1c2b	0.6176173
54	0x3ee3ef1d	0.44518366
55	0xbf13dfb6	-0.5776323
56	0xbed97685	-0.42473236
57	0x3e1d584a	0.15365711
58	0x3f082bb6	0.531917
59	0xbe23259e	-0.15932319
60	0x3eb0eda4	0.34556305
61	0x3e9a8982	0.30183035
62	0xbf017290	-0.50565434
63	0x3e57cf37	0.2107514
64	0xbea50414	-0.32229674
65	0xbe4fa596	-0.2027801
66	0x3ee8b9e1	0.45454314
67	0x3eb6563a	0.3561266
68	0xbd89eb30	-0.067343116
69	0xbd806309	-0.062688895
70	0x3f13e3e9	0.5776964
71	0x3e0af97c	0.13571733
72	0xbe1ba4a0	-0.15199518
73	0x3f0f3463	0.5593931
74	0x3f18d312	0.5969707
75	0x3f34117a	0.7033917
76	0xbe90f990	-0.283154
77	0xbe186460	-0.1488204
78	0xbe428535	-0.18996127
79	0x3f4e4b9a	0.8058411
80	0x3f02977c	0.51012397
81	0xbe2d90c3	-0.16949753
82	0xbeb1dda7	-0.3473942
83	0xbebf1e92	-0.3732801
84	0x3eba931e	0.36440367
85	0xbea9528c	-0.3307079
86	0xbe82cdf7	-0.25547764
87	0xbef5c99d	-0.4800538
88	0x3f087e0e	0.53317344
89	0xbef53474	-0.4789158
90	0xbf015654	-0.5052235
91	0xbd29f7b0	-0.04149598
92	0xbc6475c0	-0.013944089
93	0x3eda5e99	0.42650297
94	0xbea328ce	-0.3186707
95	0x3e433a15	0.19065125
96	0x3c9b06cd	0.018924141
97	0xbeb472c4	-0.3524381
98	0x3e9a9d0b	0.3019794
99	0x3a731405	0.00092726975
100	0x3f0ab509	0.5418249
101	0xbd4c4f82	-0.049880512
102	0xbf04d21d	-0.5188311
103	0xbe1993a9	-0.14997734
104	0x3b91e713	0.004452595
105	0x3edece04	0.43516552
106	0x3db42a70	0.08797157
107	0x3d8cb912	0.06871237
108	0x3e813ea9	0.25243118
109	0x3e8eebf3	0.2791439
110	0x3ef49002	0.4776612
111	0x3f20888e	0.62708366
112	0x3f52dfa7	0.82372516
113	0x3f085a2c	0.5326259
114	0x3ee8a9ad	0.45441952
115	0xbf4da492	-0.8032924
116	0x3ecb159c	0.39664924
117	0xbc746f79	-0.014919155
118	0x3ed857ef	0.42254588
119	0xbda5467b	-0.08070084
120	0x3ef4de48	0.47825837
121	0x3f41b557	0.7566733
122	0x3eb54781	0.35406116
123	0x3f2e5f44	0.68114114
124	0xbd54ab69	-0.051921282
125	0x3ed23338	0.41054702
126	0x3f236b71	0.6383582
127	0x3f0da57b	0.5533063
128	0x3d14d625	0.036337037
129	0x3da1322f	0.078709
130	0x3ddf5239	0.109043546
131	0x3e4f6c48	0.2025615
132	0xbe42e522	-0.1903272
133	0xbbb1d26f	-0.005426697
134	0x3ebf812e	0.37403244
135	0xbb60b8b6	-0.0034289784
136	0xbcabe4b5	-0.02098308
137	0x3e82b6fb	0.25530228
138	0x3db6d1af	0.08926713
139	0xbcc06dfe	-0.023489948
140	0x3eac28fa	0.33625013
141	0x3ea708c7	0.32623884
142	0x3f0986d8	0.5372138
143	0xbeb38006	-0.35058612
144	0x3f049d41	0.5180245
145	0x3d230977	0.03980395
146	0xbde8a161	-0.113589056
147	0xbc8feaa8	-0.017567948
148	0x3e144afc	0.1448173
149	0xbe3100c6	-0.17285451
150	0xbeb677a5	-0.35638157
151	0x3ecc71d2	0.39930588
152	0x3e85872c	0.2607969
153	0x3e815f30	0.25267935
154	0x3f086ddb	0.53292626
155	0x3f1c46bd	0.6104544
156	0x3e4963bd	0.19666953
157	0x3f31d96f	0.694724
158	0x3f012061	0.5044003
159	0x3f10e520	0.56599617
160	0xbd117649	-0.035513196
161	0x3e1d84d2	0.15382698
162	0x3f2eaed3	0.6823551
163	0x3e7321c4	0.2374335
164	0x3f40e626	0.7535118
165	0xbee3045c	-0.44339263
166	0x3e8e125d	0.27748385
167	0x3f135410	0.57550144
168	0xbf489861	-0.7835751
169	0x3dd98aa3	0.10622146
170	0xbdcb51e4	-0.09927729
171	0xbe9b354e	-0.30314106
172	0xbea0a148	-0.31373048
173	0x3f2c3f94	0.6728451
174	0xbee33e42	-0.44383436
175	0x3da429af	0.08015763
176	0x3f50aa78	0.81510115
177	0x3dc2a3e6	0.095039174
178	0xbe8120f9	-0.2522047
179	0x3f482468	0.7818055
180	0x3f4b74f7	0.7947535
181	0x3ee18600	0.44047546
182	0x3e1d1801	0.15341188
183	0xbd17264f	-0.03690177
184	0x3deac004	0.11462405
185	0xbd644c58	-0.05573687
186	0xbe5885c3	-0.21144776
187	0xbea0f267	-0.31434938
188	0x3e8d1d2f	0.27561328
189	0xbe03e632	-0.12880781
190	0x3e6a12aa	0.22858682
191	0xbe242869	-0.1603104
192	0xbe1a39ad	-0.15061064
193	0xbebacbbd	-0.36483565
194	0x3f19e56a	0.60115683
195	0xbe603901	-0.21896745
196	0xbf5ff4ed	-0.874831
197	0xbe1f4941	-0.15555288
198	0x3e0a89c7	0.1352912
199	0xbed039e6	-0.40669173
200	0xbd0ed35e	-0.034869544
201	0x3d41f926	0.047356747
202	0xbefa9907	-0.48944876
203	0xbe915b63	-0.28390035
204	0x3e3da6ec	0.18520707
205	0x3e689580	0.2271328
206	0x3f377a91	0.71671396
207	0x3e6db394	0.23213035
208	0xbf25c519	-0.6475387
209	0x3da730f6	0.081636354
210	0x3c699389	0.0142563665
211	0x3e6523ab	0.22376888
212	0xbe1ef2ad	-0.15522261
213	0xbe087b41	-0.13328268
214	0x3e7f3217	0.24921452
215	0xbf3e0235	-0.7422212
216	0x3e776fbb	0.24163716
217	0x3f0f2ee2	0.5593091
218	0x3eb79073	0.35852394
219	0x3e99fc16	0.3007514
220	0xbcd8a6a8	-0.026446655
221	0xbf76c538	-0.9639468
222	0x3ecdf190	0.4022336
223	0x3dd0fc92	0.10204424
224	0x3ebe6e50	0.37193537
225	0xbe9b9bb0	-0.30392218
226	0x3c5872ca	0.013210962
227	0x3ea67fc2	0.32519346
228	0xbcd8c1a8	-0.02645953
229	0x3e09023a	0.13379756
230	0x3e0e1bdf	0.1387782
231	0x3ec1640c	0.37771642
232	0x3d34a45c	0.044102058
233	0x3e32e4e5	0.17470129
234	0xbea9b0f2	-0.3314281
235	0x3e355698	0.17708814
236	0x3d27bd02	0.040951736
237	0x3d238ea8	0.03993097
238	0xbf055584	-0.5208361
239	0xbebf0f67	-0.3731644
240	0x3c5d64fc	0.013512846
241	0xbe00a521	-0.12562992
242	0xbda73f65	-0.081663884
243	0x3e77db33	0.24204712
244	0x3e1652d2	0.14680031
245	0x3e255416	0.16145357
246	0x3f01762f	0.5057096
247	0x3d900c16	0.07033555
248	0x3f0fa73b	0.5611455
249	0x3f68b6df	0.9090404
250	0x3e761481	0.24031259
251	0xbe16f230	-0.14740825
252	0xbec5a7b9	-0.38604525
253	0x3e0c2d72	0.13689211
254	0xbcfa2deb	-0.030539474
255	0xbef36bfa	-0.47543317

l1.bias f4 [8]
0	0x3f4e0e8f	0.80490965
1	0x3f06b745	0.526234
2	0x3f40ff0e	0.7538918
3	0x3ee1b3fd	0.44082633
4	0x3ef574b5	0.47940603
5	0x3eb87e25	0.3603374
6	0x3eb4651f	0.352334
7	0x3f2c77bc	0.673702

l2.weight f4 [8, 8]
0	0x3f5f3590	0.87191105
1	0x3fa3563f	1.2760695
2	0x3f1f7a4f	0.62296003
3	0x3f81bc2f	1.0135554
4	0x3db9e4bf	0.09076833
5	0xbe9a9e0d	-0.30198708
6	0x3fad9f22	1.3564188
7	0xbeecfa67	-0.46284792
8	0xbf5ec1b4	-0.8701432
9	0x3f853008	1.0405283
10	0x3f6c41bd	0.9228781
11	0x3f84f936	1.0388553
12	0x3dcd8946	0.100359485
13	0xbf23fdc8	-0.64059114
14	0x3f8f78fc	1.1208797
15	0xbe2b656e	-0.16737911
16	0x3fc7c5f4	1.5607285
17	0x3eb66689	0.35625103
18	0x3e89fb7f	0.2694969
19	0xbf66f276	-0.90213716
20	0xbf410273	-0.7539436
21	0xbbaf16c2	-0.005343289
22	0xbf7706d6	-0.96494806
23	0x3f114d1e	0.56758296
24	0x3e598b38	0.21244514
25	0xbf4fa3a2	-0.8110906
26	0x3f19560c	0.5989692
27	0xbf52a847	-0.8228802
28	0x3eefaf6d	0.46813527
29	0x3fd5d7b4	1.6706452
30	0xbe202f6a	-0.15643087
31	0x3f89e7d6	1.0773876
32	0x3d9feb4c	0.07808551
33	0xbe86e57d	-0.2634696
34	0xbddb1ec5	-0.10699228
35	0x3f1c237f	0.6099166
36	0xbf39a29b	-0.7251374
37	0x3de32a54	0.11092058
38	0x3d87903c	0.066193074
39	0x3f927ce5	1.1444365
40	0x3e6e207c	0.2325458
41	0xbf1067e4	-0.56408525
42	0x3e388c6b	0.18022315
43	0x3f563b1a	0.8368393
44	0xbf3f15a5	-0.746424
45	0xbf0dd0ae	-0.55396545
46	0x3cbf6157	0.023361845
47	0x3f78a01d	0.97119313
48	0x3f915e60	1.1356926
49	0x3f05446f	0.52057546
50	0x3e55d8e5	0.2088352
51	0xbef53461	-0.47891524
52	0xbf4ae0dd	-0.79249364
53	0xbf847987	-1.0349587
54	0xbe524fe3	-0.20538287
55	0x3e6da000	0.23205566
56	0x3c089a0b	0.008337508
57	0xbdc35ce4	-0.09539202
58	0x3f66fd1d	0.9022997
59	0x3e21fe43	0.1581965
60	0x3f8b95f7	1.0905141
61	0x3f860374	1.0469804
62	0xbee2ea43	-0.44319353
63	0xbf2572d2	-0.64628327

l2.bias f4 [8]
0	0x3e93e574	0.28885996
1	0x3ec79fde	0.38989156
2	0x3f12a3ea	0.57281363
3	0x3f149aa1	0.58048445
4	0xbdcc3390	-0.09970772
5	0x3f1c63b0	0.6108961
6	0x3e1277bb	0.14303486
7	0x3ed11c99	0.4084213

l3.weight f4 [8, 8]
0	0x3bfbbcb0	0.0076824054
1	0x3c8770ed	0.01653334
2	0xbfdc002d	-1.7187554
3	0xbd284e77	-0.041090455
4	0xbf95b523	-1.1695904
5	0xbf7d10a2	-0.98853505
6	0xbf4dddf8	-0.8041682
7	0x3f330243	0.69925326
8	0xbf40a92d	-0.7525814
9	0x3ec2c977	0.3804433
10	0xbfc2e408	-1.522584
11	0x3de93de8	0.11388761
12	0x3f30cf64	0.6906645
13	0x3f6e9052	0.93188965
14	0xbf001dd3	-0.5004551
15	0xbf972350	-1.1807652
16	0xbfef6b3f	-1.8704604
17	0xbf4a584b	-0.79040974
18	0x3f281062	0.6565
19	0x3ef64ea2	0.48106867
20	0x3f23dfea	0.6401354
21	0x3e8d373f	0.27581212
22	0xbfb01c7c	-1.3758693
23	0xbf8f4483	-1.1192783
24	0x3f21d694	0.63218045
25	0xbe6748f5	-0.22586425
26	0x3e6ab489	0.22920431
27	0xbfbc2df7	-1.4701527
28	0xbf90b81b	-1.1306185
29	0xbf53613c	-0.8257024
30	0x3f0aedde	0.54269207
31	0xbfad8e0b	-1.3558973
32	0xbe9f53ea	-0.3111871
33	0xbfca96de	-1.5827291
34	0x3f47a2df	0.77982897
35	0x3e5629ac	0.20914334
36	0xbfd5555d	-1.6666676
37	0xbe20fec4	-0.15722185
38	0x3d81d619	0.06339664
39	0x3e42a43a	0.1900796
40	0x3eee4ab4	0.4654137
41	0x3f504a88	0.81363726
42	0xbfa13446	-1.2594078
43	0xbfb1d625	-1.3893477
44	0xbf8e6ff2	-1.1127913
45	0x3c8669e6	0.016407918
46	0xbfb20eaf	-1.3910731
47	0x3dc2a081	0.0950327
48	0xc0040c49	-2.0632498
49	0xbf9ec982	-1.2405245
50	0xbfadf208	-1.3589487
51	0x3f656959	0.8961387
52	0xbed241d2	-0.41065842
53	0xbf850870	-1.03932
54	0xbf763272	-0.96170723
55	0x3ef5ce76	0.4800908
56	0xbea9dafb	-0.3317488
57	0xbfbaf1df	-1.4605063
58	0x3f50c398	0.8154845
59	0xbee95edf	-0.45580193
60	0x3da31163	0.07962301
61	0x3e7ff58f	0.24996017
62	0x3f5920a5	0.84815437
63	0xbf8bc878	-1.0920553

l3.bias f4 [8]
0	0x3dbbb70e	0.09165774
1	0xbe3832f4	-0.17988187
2	0xbde3f667	-0.11130982
3	0xbe225930	-0.15854335
4	0xbe43d940	-0.19125843
5	0x3e07bbea	0.13255277
6	0x3ea7e7ad	0.32793942
7	0x3cd02f5b	0.025413206
