data.pth (torch, 19647 bytes, 6 tensors)

l1.weight f4 [8, 286]
-0.6722422 0.06268706 0.22821705 1.0872376 1.1227185 0.13207754 0.32824475 -0.6028642
0.38743538 1.5725194 -0.705697 -0.6810329 -0.67135864 2.1862853 -0.20363869 -1.4838177
0.5554394 0.7201867 -1.5258219 -0.6756338 0.089809984 -0.2696455 -0.10340884 0.81747574
0.20130488 0.19757555 -0.7992384 1.1105508 0.08805415 0.053497877 1.5820415 1.153946
-0.30552095 1.1051948 1.6670618 1.00331 -0.18268807 -0.37508872 0.49404332 0.9058315
-1.4970856 1.3515073 1.1499982 -0.10786269 0.4084514 -0.23752065 -0.7859428 1.0323935
2.2805715 0.27352968 -0.7688983 0.20203413 -0.7836263 -1.1651487 0.049291972 1.1330777
0.82659394 -0.18056653 -0.587387 -0.6654979 0.5440392 1.2454966 0.15239753 0.9289901
1.1950787 0.3293181 0.8827174 -0.07393412 0.943367 -0.098045714 -0.1709003 0.99948597
-0.76224345 1.0799712 -0.56618494 -0.06105686 1.3182712 0.23308246 1.609779 1.3059345
0.122766055 -0.19995083 0.57776874 0.48641887 0.77742624 0.855483 -0.3866381 0.586428
0.32026246 0.90340793 -0.19242115 0.30742863 -0.6868277 1.0987175 0.72695065 0.9481528
0.07828777 1.1357883 0.37581015 1.1868906 -1.3863957 1.7923045 -0.24064057 -0.83572704
0.28335533 0.6859996 0.42424482 0.3295026 -1.1037533 -0.7518837 1.7871591 1.3896646
1.3312786 0.5214738 1.4239141 1.4034175 1.3752173 -0.4108716 1.2921824 -0.41232628
1.4038421 1.2806126 -0.18143523 -0.5894651 1.3814334 0.05273814 1.6609032 1.9055991
1.2686828 -0.3668555 0.80609584 1.1921968 -1.0428154 2.2944818 -0.17579794 1.7280562
-0.21908428 1.3430928 0.786574 1.2562305 0.26687852 0.4347253 -0.925812 0.5111444
-0.542101 0.3205724 0.32228497 -0.14379568 -1.6728383 0.3973531 1.3917028 0.47727096
-0.69203615 0.881842 -0.8878492 1.1378982 -0.14413603 1.203248 0.41748253 -0.6827139
2.171136 1.4713948 0.5411826 0.34431309 1.2134398 0.3593823 0.45210642 -0.12653828
-0.6826265 0.15509936 -0.28467718 -0.095029004 1.8070515 0.93216896 0.45810586 -0.26585114
0.05865719 -0.10929607 1.3764946 0.8381784 -1.3569802 0.46528497 -0.3326688 0.111543745
-0.13216698 0.088476665 0.42586592 -0.6020423 1.1979227 -0.5029269 -0.6037272 0.16046393
-1.330632 -1.0248389 0.74806213 -0.045360822 0.42817762 -0.25950164 -0.6734436 1.1164622
-0.57115316 -0.26385066 1.1609951 0.7480995 0.07950189 0.029714422 -0.20598279 1.2295179
1.865915 0.25813437 0.75621647 0.6035581 -1.746666 0.2546204 1.6860696 -0.8769866
0.413104 2.7446003 0.7426251 0.9928734 -0.18817389 0.779607 -0.16094348 1.3570544
-0.49160603 0.48154286 1.7287824 1.0434942 -0.93670195 -0.15295938 0.14908788 0.96963453
0.8006862 0.3481716 -0.2998853 1.0401664 0.67059547 1.4997742 0.97765326 -1.0693804
0.69076675 2.3964477 1.0190002 0.92621094 0.791685 0.6138791 -0.052606903 -1.048612
1.0660784 0.45383933 1.5415348 1.1686262 -0.50880015 2.2641344 -0.26027903 -1.2760214
00000000: 1118 2cbf 1362 803d bbb1 693e 9a2a 8b3f
00000010: 3db5 8f3f 563f 073e b20f a83e 4f55 1abf
00000020: ee5d c63e 5148 c93f 8fa8 34bf 2c58 2ebf
00000030: 29de 2bbf 19ec 0b40 a986 50be bded bdbf
00000040: 4731 0e3f 285e 383f 224e c3bf 56f6 2cbf
00000050: 4cee b73d fa0e 8abe 04c8 d3bd 1746 513f
00000060: de22 4e3e 3f51 4a3e e39a 4cbf 8726 8e3f
00000070: bc55 b43d 9720 5b3d 5680 ca3f 81b4 933f
00000080: 3e6d 9cbe 0677 8d3f 4862 d53f 766c 803f
00000090: 9512 3bbe a10b c0be 3ff3 fc3e 93e4 673f
000000a0: 80a0 bfbf 31fe ac3f 2433 933f 1de7 dcbd
000000b0: 8b20 d13e 9d38 73be 8c33 49bf 7825 843f
000000c0: e2f4 1140 150c 8c3e 85d6 44bf 09e2 4e3e
000000d0: bc9b 48bf 9823 95bf 61e6 493d b108 913f
000000e0: a99b 533f 6fe6 38be ff5e 16bf 125e 2abf
000000f0: 2746 0b3f 6f6c 9f3f 190e 1c3e 4cd2 6d3f
00000100: 57f8 983f 629c a83e c4f9 613f c66a 97bd
00000110: 8080 713f 31cc c8bd 7d00 2fbe 50de 7f3f
00000120: 6322 43bf 7f3c 8a3f 7ff1 10bf c216 7abd
00000130: 1cbd a83f 2bad 6e3e 3d0d ce3f dd28 a73f
00000140: c56c fb3d e9bf 4cbe a7e8 133f e50b f93e
00000150: 6805 473f ef00 5b3f 6ef5 c5be 2520 163f
00000160: 71f9 a33e be45 673f 0d0a 45be 4967 9d3e
00000170: f1d3 2fbf c6a2 8c3f 7019 3a3f 24ba 723f
00000180: 5755 a03d 8361 913f 306a c03e 08ec 973f
00000190: 6a75 b1bf 3c6a e53f 7b6a 76be 35f2 55bf
000001a0: f313 913e ab9d 2f3f 9e36 d93e 91b4 a83e
000001b0: ca47 8dbf 737b 40bf a1c1 e43f 88e0 b13f
000001c0: 5667 aa3f 4f7f 053f d142 b63f 2fa3 b33f
000001d0: 1f07 b03f c35d d2be 3c66 a53f 6e1c d3be
000001e0: 19b1 b33f 1deb a33f 28ca 39be 2fe7 16bf
000001f0: cfd2 b03f f303 583d 7a98 d43f acea f33f
00000200: 3364 a23f 7cd4 bbbe 4c5c 4e3f e899 983f
00000210: fa7a 85bf cad8 1240 6004 34be f230 dd3f
00000220: a157 60be 77ea ab3f ea5c 493f 29cc a03f
00000230: 4da4 883e 5194 de3e 0402 6dbf 5cda 023f
00000240: 22c7 0abf 1122 a43e 8902 a53e 2d3f 13be
00000250: 911f d6bf de71 cb3e 5123 b23f dc5c f43e
00000260: 4829 31bf 66c0 613f 164a 63bf a6a6 913f
00000270: 6598 13be 0804 9a3f 45c0 d53e 57c6 2ebf
00000280: e4f3 0a40 aa56 bc3f f18a 0a3f ce49 b03e
00000290: ff51 9b3f f500 b83e 7e7a e73e 4093 01be
000002a0: 9cc0 2ebf 5ed2 1e3e 35c1 91be 919e c2bd
000002b0: 774d e73f a0a2 6e3f da8c ea3e a41d 88be
000002c0: 8642 703d 9ed6 dfbd fa30 b03f dc92 563f
000002d0: 87b1 adbf d539 ee3e 9153 aabe 0c71 e43d
000002e0: c856 07be 4133 b53d 190b da3e 721f 1abf
000002f0: 8855 993f d1bf 00bf de8d 1abf a850 243e
00000300: 2652 aabf ec2d 83bf 0081 3f3f 45cc 39bd
00000310: 193a db3e 66dd 84be cd66 2cbf 3ce8 8e3f
00000320: 1837 12bf 6f17 87be 7d9b 943f 7383 3f3f
00000330: e3d1 a23d a96b f33c 27ed 52be d860 9d3f
00000340: 4dd6 ee3f 302a 843e 6797 413f c982 1a3f
00000350: c092 dfbf 9b5d 823e 21d1 d73f 3282 60bf
00000360: 5e82 d33e 88a7 2f40 ae1c 3e3f f32c 7e3f
00000370: a8b0 40be 5394 473f 5ece 24be f5b3 ad3f
00000380: c9b3 fbbe c98c f63e be48 dd3f 3891 853f
00000390: b3cb 6fbf 62a1 1cbe 7eaa 183e f839 783f
000003a0: c5f9 4c3f 8c43 b23e 918a 99be 2c24 853f
000003b0: 25ac 2b3f 9af8 bf3f 7c47 7a3f 75e1 88bf
000003c0: 17d6 303f 665f 1940 996e 823f 291c 6d3f
000003d0: deab 4a3f 2e27 1d3f 567a 57bd eb38 86bf
000003e0: 4275 883f a15d e83e 0351 c53f 8b95 953f
000003f0: ba40 02bf 94e7 1040 4b43 85be ab54 a3bf

l1.bias f4 [8]
1.4121394 1.198114 1.0112082 1.6320537 0.9370056 0.7887557 0.61893666 0.45459864
00000000: fcc0 b43f cd5b 993f 456f 813f 23e7 d03f
00000010: 99df 6f3f e5eb 493f a272 1e3f 27c1 e83e

l2.weight f4 [8, 8]
1.1416358 1.9692235 1.1957418 2.0226007 0.25321528 -1.068796 -0.88148856 -2.0622938
-0.17496918 -0.1398149 -0.20580655 -0.1811354 0.23440604 -0.2078946 0.059891757 -0.039830387
1.2130152 1.2172955 -0.5190868 1.0057696 -1.8951441 -1.3225591 1.8297945 2.2114758
0.6949263 2.0538814 3.135134 -0.49304682 3.7465897 -0.011946949 -0.6156668 2.2439885
2.774213 1.1385105 -1.6064957 0.48267934 -0.3146578 1.0814325 -1.371197 -1.4623127
-0.91091377 -0.96913964 0.019682456 2.4284065 -0.6960456 2.2673774 0.40747747 -0.8067046
2.0271223 -1.8243282 1.894425 -0.023477156 0.517931 1.88219 3.3431854 -1.2728175
0.20272307 1.7139801 -2.0391986 0.373831 -0.5912313 1.917582 -0.43156803 2.6891284
00000000: 1f21 923f 840f fc3f 110e 993f 4a72 0140
00000010: 6fa5 813e 4fce 88bf 3ca9 61bf 9ffc 03c0
00000020: 1f2b 33be a32b 0fbe f4be 52be 8f7b 39be
00000030: 2308 703e 52e2 54be 0f51 753d 3025 23bd
00000040: 1544 9b3f 57d0 9b3f dfe2 04bf 0fbd 803f
00000050: 1594 f2bf 9e49 a9bf b536 ea3f d288 0d40
00000060: b1e6 313f cb72 0340 09a6 4840 a270 fcbe
00000070: 20c8 6f40 23bd 43bc 579c 1dbf 829d 0f40
00000080: b58c 3140 b6ba 913f a7a1 cdbf bf21 f73e
00000090: d41a a1be 616c 8a3f 6283 afbf 102d bbbf
000000a0: a531 69bf 8919 78bf 1a3d a13c 036b 1b40
000000b0: 0b30 32bf b61c 1140 e3a0 d03e 3184 4ebf
000000c0: 5fbc 0140 9683 e9bf 857c f23f 2a53 c0bc
000000d0: 2097 043f 9aeb f03f c0f6 5540 afeb a2bf
000000e0: a396 4f3e b363 db3f 3b82 02c0 c766 bf3e
000000f0: ef5a 17bf 5473 f53f 7cf6 dcbe ae1a 2c40

l2.bias f4 [8]
0.81299025 -0.24738267 -0.21660008 0.7875267 1.1027008 1.2749383 -0.48422915 -0.65402395
00000000: 2120 503f e251 7dbe 69cc 5dbe 5a9b 493f
00000010: 4d25 8d3f 2e31 a33f e2ec f7be 1d6e 27bf

l3.weight f4 [81, 8]
1.0674076 0.12917532 -2.1010509 0.53584313 -1.8765091 -0.7534724 -1.4699283 -1.5625898
0.15762572 0.20143332 -5.2992625 0.23527229 -3.0699894 0.801234 -0.074289195 -1.4558902
-3.9915338 -0.050727695 -0.5443438 -1.9053038 -0.80433977 0.32296064 0.7785826 -0.5417776
0.0077701393 0.11133422 -0.21275295 -0.20379259 -3.6185184 -1.8843669 0.20910974 -0.756885
0.2903576 0.063613124 0.120213896 -0.28892696 0.016623143 -0.6722119 -1.3638937 0.078175314
1.1485695 -0.33518544 -0.18420023 -2.3128057 0.24423984 1.3819548 -1.6727074 -1.5889161
-0.4982551 0.015909992 -5.299664 0.39845106 -3.3653486 -0.5065739 0.75801736 -4.1507187
-1.306916 -0.19024356 -0.9529981 0.3619108 -2.9045458 -2.9726186 0.7164671 -3.6385596
1.6177921 -0.096725784 -0.3151369 -0.21018401 1.1464069 -5.0219626 -1.5923905 -1.9586718
-1.6506224 -0.085068926 -0.6369478 -1.3293816 0.28935695 -0.2673103 0.35609367 0.16348366
0.081883684 0.20843035 -1.1843821 -0.24981284 0.8000949 -3.0092802 -6.246068 0.80053246
-0.542704 0.25683892 0.7240597 -1.7026813 0.37913957 -1.0992845 -0.28453493 0.0743569
1.1860061 -0.024786426 -2.2879798 0.13080452 0.41313562 0.9325062 -2.1120946 -4.976341
-3.6665843 0.3067373 -3.5417795 -0.18640265 0.3173815 0.45280716 -0.856456 0.42501965
0.09055254 0.3126395 0.39847818 0.17040184 -2.6030047 0.0098859845 -0.8076135 -2.8152864
-3.3525743 0.075009994 -2.7212608 -0.22290786 0.7015567 -0.85980636 0.056385547 -0.15997556
-1.9781201 -0.25920114 -2.1503913 0.09067256 -3.1511908 -0.13360423 0.44082722 -1.0133917
-4.0291963 -0.03696196 -0.35135347 0.2632962 -2.9433174 0.14611569 -3.5567076 0.5253297
-3.206509 -0.05783789 0.28904435 -0.32308385 0.12461823 0.025341468 -3.6548052 0.5054983
-1.6127247 -0.23474139 -4.197279 0.7394404 -3.2754526 -1.8729082 -0.6777047 -0.47549403
-2.917697 0.13680583 -2.3026097 -0.6848478 -0.5533146 0.15876602 0.5763608 -0.5826314
-2.6095603 -0.04958672 0.63699085 -0.25214982 -2.294136 -3.3036048 0.033753224 -0.729114
-2.3291004 -0.098900765 -3.886691 -0.031913612 -0.65418786 0.19428805 0.13413335 -0.21465625
-3.0139942 -0.20864087 -0.08102259 -0.21948537 -3.4579835 -0.78878057 0.24324316 -0.6787398
-3.3237498 0.1751925 0.53082687 -1.4359587 -2.6141267 0.03430038 0.10642117 -0.17403458
-4.3666606 0.105363324 -2.7945478 0.3024637 -1.5907981 -1.7842185 0.55113953 -0.92131555
-2.346637 0.34532836 -0.17137715 -0.18065138 -2.5261304 -0.064429164 0.37130585 -2.924101
-0.87001514 -0.01835228 -1.8413719 -0.3987852 -3.634054 0.3784514 0.7213943 -3.2072177
0.17320472 -0.14746912 -2.019038 -0.44365928 1.1708219 -2.9854605 -0.1275109 -0.2612961
0.50432813 -0.018330755 -4.6704497 -0.16443576 0.36779043 0.36519867 0.3487835 -5.055406
-4.1100717 -0.32783565 -1.4235575 -0.40576383 -0.32683313 -0.25925863 -0.1368489 0.39412636
-0.94399244 0.16223526 -0.25291058 -0.25647402 -2.7224903 0.54371333 -2.0203958 0.19935569
00000000: d0a0 883f 8946 043e 9e77 06c0 042d 093f
00000010: 7331 f0bf 91e3 40bf 9c26 bcbf f102 c8bf
00000020: a368 213e 8944 4e3e 8f93 a9c0 38eb 703e
00000030: b57a 44c0 ac1d 4d3f ef24 98bd 9c5a babf
00000040: 4a75 7fc0 d8c7 4fbd 1e5a 0bbf ffe0 f3bf
00000050: 36e9 4dbf 195b a53e 3051 473f f0b1 0abf
00000060: a79c fe3b 3203 e43d e9db 59be 01af 50be
00000070: ce95 67c0 ef32 f1bf dd20 563e 37c3 41bf
00000080: c0a9 943e 9947 823d b432 f63d 3cee 93be
00000090: 422d 883c 1416 2cbf 1294 aebf 611a a03d
000000a0: 5304 933f 6d9d abbe fc9e 3cbe 0205 14c0
000000b0: 021a 7a3e e5e3 b03f 471b d6bf 9a61 cbbf
000000c0: 4b1b ffbe ac55 823c d996 a9c0 c701 cc3e
000000d0: df61 57c0 d4ae 01bf 6d0d 423f b0d2 84c0
000000e0: 0649 a7bf 35cf 42be aff7 73bf 5f4c b93e
000000f0: 14e4 39c0 623f 3ec0 636a 373f 29de 68c0
00000100: d013 cf3f 2b18 c6bd a059 a1be 7a3a 57be
00000110: 76bd 923f ebb3 a0c0 74d3 cbbf c2b5 fabf
00000120: 9847 d3bf 9e38 aebd 030f 23bf 2d29 aabf
00000130: 9826 943e e5dc 88be e951 b63e 4368 273e
00000140: a2b2 a73d c46e 553e d599 97bf f0ce 7fbe
00000150: 05d3 4c3f 0c98 40c0 cadf c7c0 b2ef 4c3f
00000160: a6ee 0abf 6480 833e fa5b 393f 76f1 d9bf
00000170: 951e c23e 5bb5 8cbf 90ae 91be 6e48 983d
00000180: 0ccf 973f e70c cbbc 436e 12c0 9ff1 053e
00000190: 8386 d33e bab8 6e3f 8f2c 07c0 2f3e 9fc0
000001a0: 51a9 6ac0 ac0c 9d3e 84ac 62c0 56e0 3ebe
000001b0: d47f a23e 57d6 e73e b340 5bbf 2d9c d93e
000001c0: 9c73 b93d 4912 a03e 5505 cc3e d27d 2e3e
000001d0: a197 26c0 d3f8 213c c2bf 4ebf a72d 34c0
000001e0: 9490 56c0 d79e 993d 2329 2ec0 f541 64be
000001f0: 3899 333f 451c 5cbf 88f4 663d a2d0 23be
00000200: 0a33 fdbf 03b6 84be 03a0 09c0 89b2 b93d
00000210: 1cad 49c0 8ccf 08be 1bb4 e13e d2b6 81bf
00000220: 2def 80c0 6d65 17bd 9ae4 b3be c2ce 863e
00000230: 505f 3cc0 5a9f 153e 19a1 63c0 027c 063f
00000240: 7237 4dc0 6ce7 6cbd 9ffd 933e 3f6b a5be
00000250: d837 ff3d e998 cf3c 54e8 69c0 5668 013f
00000260: c36d cebf 0c60 70be 1c50 86c0 f74b 3d3f
00000270: 04a1 51c0 75bb efbf 0e7e 2dbf f473 f3be
00000280: 8cbb 3ac0 d416 0c3e f55d 13c0 2f52 2fbf
00000290: 07a6 0dbf 8f93 223e 628c 133f 5527 15bf
000002a0: 0903 27c0 721b 4bbd d511 233f c819 81be
000002b0: 20d3 12c0 436e 53c0 d240 0a3d 37a7 3abf
000002c0: fb0f 15c0 7c8c cabd 8cbf 78c0 d9b7 02bd
000002d0: db78 27bf 72f3 463e 415a 093e d9ce 5bbe
000002e0: 48e5 40c0 f4a5 55be 2cef a5bd c6c0 60be
000002f0: 9a4f 5dc0 86ed 49bf bc14 793e e4c1 2dbf
00000300: 51b8 54c0 aa65 333e 45e4 073f 7fcd b7bf
00000310: da4d 27c0 8e7e 0c3d 58f3 d93d 1f36 32be
00000320: afbb 8bc0 bac8 d73d dfd9 32c0 86dc 9a3e
00000330: 469f cbbf 4661 e4bf 7b17 0d3f 56db 6bbf
00000340: 4d2f 16c0 e1ce b03e 7e7d 2fbe adfc 38be
00000350: 1fac 21c0 70f3 83bd cd1b be3e 7924 3bc0
00000360: 50b9 5ebf 8557 96bc 13b2 ebbf 932d ccbe
00000370: 5794 68c0 62c4 c13e 4cad 383f 0e43 4dc0
00000380: 945c 313e 2502 17be eb37 01c0 4f27 e3be
00000390: 7edd 953f c911 3fc0 3892 02be 9ac8 85be
000003a0: a61b 013f 612a 96bc 5374 95c0 d961 28be
000003b0: 074f bc3e 52fb ba3e c093 b23e e3c5 a1c0
000003c0: b585 83c0 13da a7be 2237 b6bf 47c0 cfbe
000003d0: ac56 a7be 8cbd 84be 1e22 0cbe eeca c93e
000003e0: 7da9 71bf 0021 263e 7f7d 81be 9050 83be
000003f0: 483d 2ec0 cc30 0b3f 2a4e 01c0 e623 4c3e

l3.bias f4 [81]
0.039744828 0.32752064 -0.21287468 -0.7801483 0.18635029 0.6417726 0.22742683 0.15181497
0.69908977 -0.74970037 -0.030152166 -0.43256888 0.57760876 0.54695755 0.57286096 -0.26862815
-0.4734097 0.49133104 -0.64673287 -0.0010842534 -0.77253103 0.17488521 -0.2977182 -0.40962887
-0.0409223 0.35511264 -0.06106564 0.2346618 0.031174503 0.6740885 -0.40982497 -0.53521246
0.28337002 0.10837994 -0.59443796 0.1639813 -0.3600292 0.14987639 0.3206266 0.9305089
-0.24176314 0.064603455 -0.93260354 0.5910161 -0.6172811 -0.12824401 0.63304126 -0.1841468
0.27550283 -0.49131843 0.11021628 0.27147192 -0.8941181 0.28337732 -0.7048565 -0.0025756627
0.5646494 -0.32588303 0.65342957 -0.3614725 -0.6340417 0.1720096 0.096788585 0.049991712
-1.5366998 0.080956504 -0.22843629 -1.2757298 -0.09286124 0.3098055 -1.0095559 -0.105790555
-0.24044482 0.35745773 -0.07723357 -0.54280686 -0.18095107 -0.62486035 0.05327801 -0.25491324
-0.8909115
00000000: 79cb 223d c9b0 a73e d2fb 59be cdb7 47bf
00000010: 9cd2 3e3e 364b 243f 94e2 683e 6275 1b3e
00000020: 8cf7 323f 5dec 3fbf ad01 f7bc ab79 ddbe
00000030: 2bde 133f 6905 0c3f 04a7 123f a189 89be
00000040: c262 f2be be8f fb3e 4990 25bf 821d 8eba
00000050: 98c4 45bf 1c15 333e 856e 98be e0ba d1be
00000060: 249e 27bd 53d1 b53e f71f 7abd 2f4b 703e
00000070: ac61 ff3c 1091 2c3f 94d4 d1be af03 09bf
00000080: e015 913e 4df6 dd3d 162d 18bf b7ea 273e
00000090: bf55 b8be 3279 193e 2b29 a43e d535 6e3f
000000a0: c290 77be d14e 843d 1bbf 6ebf d54c 173f
000000b0: 2206 1ebf 6652 03be fe0e 223f fb90 3cbe
000000c0: b50e 8d3e 178e fbbe 13b9 e13d 5efe 8a3e
000000d0: ece4 64bf d516 913e 7a71 34bf 73cc 28bb
000000e0: dd8c 103f 24da a6be 2947 273f ec12 b9be
000000f0: 8f50 22bf 4923 303e 1839 c63d 1cc4 4c3d
00000100: 94b2 c4bf 86cc a53d 34eb 69be 1d4b a3bf
00000110: 092e bebd d49e 9e3e 2139 81bf b8a8 d8bd
00000120: 2b37 76be b304 b73e a22c 9ebd 64f5 0abf
00000130: 3d4b 39be d9f6 1fbf 0b3a 5a3d fd83 82be
00000140: c712 64bf
