data.pth (torch, 20607 bytes, 6 tensors)

l1.weight f4 [8, 297]
0	0xbedd7a47	-0.43257353
1	0x3f4654ac	0.7747295
2	0xbe0d4dc2	-0.13799194
3	0x3f95eb50	1.1712437
4	0x3f3cb579	0.73714405
5	0xbf2f4452	-0.68463624
6	0xbf3f6da3	-0.7477667
7	0xbefe3285	-0.49647918
8	0xbee0a88b	-0.43878588
9	0x40074a42	2.1139073
10	0x3f1f31b3	0.6218521
11	0xc00b9c76	-2.1814246
12	0xbecdc1e4	-0.4018699
13	0x3faa8893	1.3322929
14	0x3eff417a	0.49854642
15	0xbfa2261b	-1.2667879
16	0x3f8de68d	1.1085984
17	0xbf22a317	-0.63530105
18	0xbf2ffc8a	-0.6874472
19	0xbd82304f	-0.063568704
20	0x3f80ded0	1.0067997
21	0x3f855d94	1.0419183
22	0x400e50c2	2.223679
23	0x3f94edcf	1.1635073
24	0x3f0e8eb5	0.55686504
25	0x3fcf1455	1.617808
26	0xbf7be794	-0.98400235
27	0xbf2af240	-0.66775894
28	0x3e6ce59d	0.23134466
29	0xbec6aa06	-0.38801593
30	0xbf0ebbb7	-0.5575518
31	0x3fbf3a87	1.4939736
32	0x40006ca1	2.0066302
33	0xbf24ef02	-0.64427197
34	0xbf58053b	-0.8438298
35	0x3ec32b8e	0.38119167
36	0x3f378916	0.7169355
37	0xbf24ca97	-0.6437163
38	0x3e0c1867	0.13681184
39	0x3f267673	0.6502449
40	0x3f6d0ac1	0.92594534
41	0xbf486aa1	-0.782877
42	0xbf8f4e8e	-1.1195848
43	0xbf8789de	-1.0588949
44	0xbc9f92e0	-0.019479215
45	0xbf574601	-0.8409119
46	0x3d5ba10a	0.053620376
47	0x3f684b27	0.90739673
48	0xbfc6dd35	-1.5536257
49	0xbff89715	-1.9421107
50	0x3fb9e26c	1.4522223
51	0xbcc7455a	-0.024325062
52	0xbf8378d0	-1.0271244
53	0xbea86f42	-0.32897383
54	0xbf4e2567	-0.8052582
55	0x3fdc9903	1.7234195
56	0xbf6dfaad	-0.92960626
57	0xbeb33200	-0.34999084
58	0x3f3e28dc	0.74281096
59	0xbfc48257	-1.5352277
60	0xbf5ef083	-0.8708574
61	0xbed2b737	-0.41155407
62	0xbee6c825	-0.45074573
63	0x3dc8b367	0.09799843
64	0xbf7c24fe	-0.98493946
65	0x3f837562	1.0270197
66	0x3e968fd2	0.294066
67	0xbd1bbec6	-0.038023733
68	0x3e924d95	0.28574815
69	0xbf134c37	-0.5753817
70	0x3f4ccb31	0.79997545
71	0x3ef7df72	0.48412663
72	0x3d899961	0.06718708
73	0x3f0402c1	0.515667
74	0x3f98cf29	1.193822
75	0xbf60b8d4	-0.87782025
76	0xbf82e89a	-1.0227234
77	0xbe15a3e9	-0.14613308
78	0x3edbb120	0.42908573
79	0x3eebfded	0.46092167
80	0x3e9ecb4b	0.31014475
81	0xbfa041da	-1.2520096
82	0x40078c2d	2.1179307
83	0xbfc06431	-1.5030576
84	0x3f443fb0	0.7665968
85	0xc019fefa	-2.4061875
86	0x400e60a2	2.224648
87	0xbf5a52b9	-0.85282475
88	0x3fac2246	1.344796
89	0xbf67bcd0	-0.9052248
90	0xbeb9438c	-0.36184347
91	0x3fb1d78c	1.3893905
92	0x3e172915	0.14761765
93	0x3e922046	0.28540248
94	0xbe001371	-0.12507416
95	0x4007fb49	2.1247122
96	0xbec9a0fa	-0.39380628
97	0x3f11a7a2	0.5689641
98	0xbf1476e1	-0.57993895
99	0x3df91c08	0.1216355
100	0x3fed26ca	1.8527462
101	0xbf86cab6	-1.0530612
102	0x3efb872c	0.49126565
103	0x3bdcf8f9	0.006743547
104	0x3fd8fbc6	1.6951835
105	0xbf8d30df	-1.1030539
106	0x3f4630fe	0.77418506
107	0xbfad29b0	-1.3528347
108	0x3f02a115	0.5102704
109	0xbf11391c	-0.56727767
110	0x3ee56c82	0.44809347
111	0x3f04b4e7	0.51838535
112	0x3faca340	1.348732
113	0x3f86967a	1.0514672
114	0x3f9bebfc	1.2181392
115	0x3f38292e	0.71937835
116	0x3ea01879	0.3126867
117	0xbf8fad65	-1.1224791
118	0x3fb4fb6d	1.4139229
119	0xbf8f1731	-1.1178952
120	0xbf8fb204	-1.1226201
121	0xbec85a16	-0.3913123
122	0xbf8f6299	-1.1201965
123	0x3faa5acf	1.3308963
124	0xbf8f72a5	-1.1206862
125	0x3fed86e8	1.8556795
126	0xbf01291c	-0.5045335
127	0x3f375ac4	0.7162287
128	0x3ffa7613	1.9567283
129	0x3ec269d4	0.37971365
130	0x3f8cf5a3	1.1012462
131	0x3ffddf99	1.9833862
132	0x3f82c874	1.0217423
133	0xbf161197	-0.5862059
134	0x3eac7f76	0.33690995
135	0xbd83498e	-0.06410514
136	0xbf64ba6d	-0.89346963
137	0x3e967545	0.29386345
138	0x3fee2308	1.8604441
139	0x3fb89be5	1.4422575
140	0xbb22dcfd	-0.0024850958
141	0xbf8f1db5	-1.1180941
142	0x3f04721a	0.51736605
143	0xbf3181d0	-0.69338703
144	0x3fe74c76	1.8070209
145	0x3ea18448	0.31546235
146	0x3ef961c9	0.48707417
147	0x3f09417f	0.53615564
148	0x3f91d4f2	1.1393111
149	0xbe091a45	-0.13388927
150	0xbf32cee4	-0.6984694
151	0x3e7d2092	0.24719456
152	0xbf653185	-0.89528686
153	0x4004678f	2.0688207
154	0x3fbaee06	1.4603889
155	0xbf6d4ee3	-0.92698497
156	0x3fd1aa84	1.6380162
157	0xbecf504c	-0.4049095
158	0x3f1ddbc3	0.61663455
159	0xbebc69c4	-0.36799443
160	0x3d121775	0.0356669
161	0xbf82d1af	-1.022024
162	0x3fb69576	1.4264362
163	0xc0039301	-2.0558474
164	0x3f295c68	0.66156626
165	0xbfdc11f8	-1.7192984
166	0x3f66ec08	0.90203905
167	0x3fafa269	1.3721439
168	0xc0230993	-2.5474594
169	0xbf07701e	-0.5290545
170	0x3e6ac7a7	0.22927724
171	0x3fedbcfc	1.8573298
172	0x4036e9de	2.8580241
173	0x40293ff4	2.6445284
174	0x3e2d7acb	0.16941373
175	0xbd3ccb4c	-0.046092317
176	0x3fde0912	1.7346518
177	0x3f593128	0.8484063
178	0x3ef6aea6	0.4818012
179	0x3f7509cf	0.9571809
180	0x3fc776f7	1.558318
181	0x3feda773	1.8566726
182	0xbf8f6b35	-1.1204592
183	0x3f58d27c	0.84696174
184	0x3fee68da	1.8625748
185	0xbf6b0971	-0.9181128
186	0x3fc814c5	1.5631338
187	0xbf6d329b	-0.9265534
188	0x3f0bb617	0.5457472
189	0xbe8f394b	-0.279734
190	0x3e2d7274	0.16938192
191	0xbd8b7d0c	-0.0681096
192	0x3eefccc0	0.468359
193	0x3e18b7ca	0.1491386
194	0xbec4c07e	-0.3842811
195	0xbf32b953	-0.6981403
196	0xbe54c68b	-0.20778863
197	0xbf310234	-0.69143987
198	0xbf8c3100	-1.0952454
199	0xbf557c39	-0.83392674
200	0x3e44f584	0.19234282
201	0xbf513332	-0.8171874
202	0x3f989f01	1.1923524
203	0xbf1b6c4f	-0.6071214
204	0xbda6d2f7	-0.08145707
205	0xbf4d992c	-0.80311847
206	0xbf852f05	-1.0404974
207	0xbf2f7c38	-0.6854892
208	0x3f6eb4a7	0.93244404
209	0xbf0f1cb2	-0.5590316
210	0xbe8e2000	-0.2775879
211	0x3d14a19d	0.03628694
212	0xbee3b1b5	-0.44471517
213	0x3f06d9aa	0.5267588
214	0x3fc92045	1.5712973
215	0xbf8b6ed5	-1.0893198
216	0x3fc94d99	1.5726806
217	0xbdf9490e	-0.12172137
218	0x3fc9e6ec	1.5773597
219	0x3ee658d4	0.44989645
220	0x4002b451	2.0422556
221	0x3f563c66	0.8368591
222	0x3fa5408a	1.2910321
223	0x3e80fae6	0.2519142
224	0xbc3d9ccc	-0.011573028
225	0x3dcec142	0.10095455
226	0x3e92c1df	0.28663537
227	0x3f905d54	1.1278481
228	0xbf5df433	-0.86700743
229	0x3f8b64b6	1.089011
230	0xbf8f14c8	-1.1178217
231	0xbf736521	-0.95076185
232	0x3dd01ad4	0.10161367
233	0x3e4319bd	0.19052787
234	0xbf138aad	-0.5763348
235	0x3f06d289	0.52665
236	0x3f877978	1.0583944
237	0x3f8f80e4	1.1211209
238	0xbf9053b6	-1.1275547
239	0x3f9acf7a	1.2094567
240	0x3f4afd7f	0.79293054
241	0xbf4cccb0	-0.7999983
242	0x3e7abe09	0.24486555
243	0x3fe5900a	1.7934582
244	0xbf0e7091	-0.5564051
245	0xbf843c67	-1.0330933
246	0xbf8b5a84	-1.0886998
247	0xbf210a74	-0.62906575
248	0x3f7001eb	0.93752927
249	0x4015a4ac	2.3381758
250	0x3f808320	1.0040016
251	0x3f39546d	0.7239445
252	0x3f15426a	0.58304465
253	0xbed6a877	-0.41925403
254	0xbde2c3ad	-0.110724784
255	0xbe552db9	-0.20818223

l1.bias f4 [8]
0	0x3f867f7c	1.0507655
1	0x3f9b6e08	1.2142954
2	0x3f7aa6c2	0.979107
3	0x3fb05abf	1.3777694
4	0x3f5b9256	0.85770166
5	0x3fb75ddc	1.4325519
6	0x3ef1cff5	0.4722897
7	0x3faaf5ff	1.3356322

l2.weight f4 [8, 8]
0	0x3f1a16bd	0.60190946
1	0x3e53e365	0.20692213
2	0x40078b78	2.1178875
3	0x40600b23	3.5006797
4	0xbf57a05c	-0.84229064
5	0xbfa0af2d	-1.255346
6	0xbfa5220c	-1.2901015
7	0x400f3400	2.2375488
8	0x3e8bf6ad	0.27336636
9	0xbe187256	-0.14887366
10	0xbccd1d2d	-0.025038326
11	0xbed68224	-0.41896164
12	0xbe9c20ef	-0.30493876
13	0xbcfa0de0	-0.030524194
14	0xbe9d9f00	-0.3078537
15	0xbd8031bb	-0.06259485
16	0x3e300634	0.17189866
17	0x404b919b	3.180762
18	0xc016a245	-2.3536541
19	0x40ae4bd1	5.446755
20	0xbf5feb30	-0.8746824
21	0x3fffabf3	1.997435
22	0xbf8e45a1	-1.1114999
23	0xbf4d27c8	-0.80138826
24	0x3ff8d754	1.9440713
25	0x3f36359e	0.71175563
26	0x3ec7299a	0.38898927
27	0xbfbedb88	-1.4910746
28	0x3f5eab35	0.8697999
29	0x3e99bb1e	0.30025572
30	0xc019e81d	-2.404792
31	0x3f024910	0.50892735
32	0x3f37baf8	0.71769667
33	0xbe889bec	-0.2668146
34	0x3fca16b4	1.5788178
35	0xbffd7780	-1.9802094
36	0xc0114bfd	-2.270263
37	0x402c0cd7	2.6882837
38	0x3f9819cd	1.1882874
39	0x40150317	2.3283136
40	0xc00ff822	-2.2495198
41	0x3e16d511	0.14729716
42	0xbea58a3b	-0.32332024
43	0x4042705b	3.0381076
44	0x405a03f8	3.4064922
45	0x3fddf1b8	1.7339392
46	0xbf9ea670	-1.2394543
47	0x4040562a	3.005259
48	0x404515e8	3.079462
49	0x3eb2db4e	0.3493294
50	0x3f3a8db0	0.7287245
51	0x3c14f0a8	0.00909058
52	0xbf80868a	-1.0041058
53	0x3f492620	0.785738
54	0x40532ba0	3.2995377
55	0x3f69b27a	0.9128796
56	0xbf01e0ef	-0.50733846
57	0x4035fd56	2.8435874
58	0x4022db73	2.544644
59	0xbf0811e2	-0.53152287
60	0x3d5e835f	0.054324504
61	0xbf5752cf	-0.8411073
62	0xbe1399ad	-0.14414091
63	0xbd32d226	-0.043657444

l2.bias f4 [8]
0	0x3d29b68a	0.04143385
1	0xbe24dd0e	-0.1609995
2	0x3f8fc5ec	1.1232276
3	0x3fb49581	1.4108125
4	0x3f9fdc56	1.2489116
5	0x3fadfb70	1.3592358
6	0xbec16de0	-0.3777914
7	0x3ef4076c	0.47661912

l3.weight f4 [83, 8]
0	0xbe39a30f	-0.18128608
1	0xbd139e1a	-0.03603945
2	0xbf71e5d8	-0.9449134
3	0xc036dcad	-2.857219
4	0xc017c1e5	-2.3712094
5	0xbccd3ea6	-0.025054287
6	0xbd84abdc	-0.06478092
7	0x3f2a74f6	0.6658472
8	0xbf96ba75	-1.1775652
9	0xbc2d8170	-0.010589942
10	0x3edb8f9c	0.42883003
11	0xbf4d8076	-0.8027414
12	0x3f0f8674	0.56064534
13	0x3f3472eb	0.7048785
14	0xbf5e1eb9	-0.8676563
15	0xc0babf72	-5.83587
16	0xbfe680ac	-1.8008018
17	0x3e84970b	0.25896487
18	0xc094e4d5	-4.6529336
19	0x3e51f4b3	0.20503502
20	0x3eb842dd	0.35988513
21	0x3e445a3f	0.19175051
22	0xbf2ccf77	-0.67504066
23	0x3f6a402a	0.91504157
24	0xbeaabf3a	-0.3334902
25	0xc00cd318	-2.2003841
26	0x3f64a6b6	0.8931688
27	0xbf08ac7b	-0.53388184
28	0xbfafc6b7	-1.3732518
29	0xc0892ca2	-4.2866983
30	0x3da12e69	0.0787018
31	0xbf9eeaf6	-1.2415454
32	0xc018f3de	-2.3898845
33	0x3e3746ef	0.17898153
34	0x3de4240f	0.1113969
35	0xbf843968	-1.0330019
36	0xc04980a9	-3.1484778
37	0x3e05139e	0.12995765
38	0xbe247b90	-0.1606276
39	0x3f15528c	0.5832908
40	0xc06219f6	-3.5328345
41	0xbe612bb2	-0.21989325
42	0xc01baa38	-2.4322643
43	0xc016f2b4	-2.3585634
44	0x3e795f94	0.24352866
45	0x3e2259c2	0.15854552
46	0x3eb9257a	0.36161405
47	0xbf45d2c8	-0.7727475
48	0x3d116db1	0.035505
49	0xbd3575ea	-0.044301905
50	0xbf80c61d	-1.0060459
51	0x3f821165	1.0161558
52	0x3e0b45af	0.13600801
53	0xbef14bb0	-0.47128057
54	0xbebed7e6	-0.37274092
55	0xbe7f5eb5	-0.24938472
56	0x3f021d36	0.5082582
57	0xbd95764a	-0.072979525
58	0xbe01be58	-0.12670267
59	0xbfb45ea8	-1.4091387
60	0xbfb73331	-1.4312497
61	0xc08f407a	-4.4766207
62	0x3d804ad8	0.06264275
63	0x3e5a69ec	0.21329468
64	0xc06e2982	-3.7212834
65	0x3e3a6338	0.18201911
66	0x3f8f16e0	1.1178856
67	0xc0799675	-3.8998082
68	0xbe6b3c44	-0.22972208
69	0xbf29394a	-0.6610304
70	0x3e0828ad	0.13296767
71	0xc010d6a2	-2.2631001
72	0x3f687522	0.9080373
73	0xbe728231	-0.23682477
74	0x3ce3fe03	0.027831083
75	0x3ebc4a58	0.3677547
76	0xc05c827a	-3.4454637
77	0xbeaee97b	-0.34162506
78	0xbe5e619f	-0.21716927
79	0xbf91be3d	-1.1386181
80	0x3f918a2a	1.1370289
81	0x3db50ef2	0.08840741
82	0xbe756635	-0.2396477
83	0xbfa7e8b1	-1.3117887
84	0xbfe7cabb	-1.8108743
85	0xbea7c582	-0.32767874
86	0xbfca3923	-1.5798687
87	0x3f4e6eac	0.8063762
88	0x3f05cf9d	0.5226992
89	0xbf137662	-0.5760251
90	0xbfbe574e	-1.4870393
91	0xbfda2822	-1.7043498
92	0x3ec52a4b	0.3850883
93	0xbe05f62b	-0.13082187
94	0xbeeb79bd	-0.45991316
95	0x3dc6596f	0.09685027
96	0x3d636a15	0.05552109
97	0x3ca3d5e6	0.019999456
98	0x3f7225a9	0.94588715
99	0x3e3b21b4	0.18274575
100	0xbffa35be	-1.9547651
101	0xbf2a7197	-0.66579574
102	0xbf93cef9	-1.1547538
103	0xbee242eb	-0.4419168
104	0x3e2db17a	0.16962233
105	0x3d3007a1	0.042976025
106	0x3f3fe3b6	0.74956834
107	0xbe50488a	-0.20340171
108	0xc0a49d13	-5.144174
109	0x3f04dc35	0.5189851
110	0xbfc78fc6	-1.5590751
111	0xbfd0dd15	-1.6317469
112	0xc049f9a0	-3.155861
113	0xbe8f003f	-0.27929875
114	0xbe6a3527	-0.22871839
115	0x3f61a681	0.8814469
116	0xbf9c5071	-1.2212049
117	0x3f1418ea	0.57850516
118	0xbf7ffc2c	-0.9999416
119	0xbe9c8e57	-0.30577347
120	0xbeeca941	-0.4622288
121	0x3e76bd4b	0.24095647
122	0x3f6ceaf5	0.92546016
123	0xbe6dc3eb	-0.23219268
124	0xc0294d84	-2.6453562
125	0x3e3e7d9d	0.18602605
126	0xc081b7c3	-4.053682
127	0x3ea54d52	0.32285553
128	0x3e84d3c4	0.25942814
129	0xbb7cbcc3	-0.003856466
130	0xbdb8295f	-0.08992266
131	0xbff1d2ba	-1.8892434
132	0xc080038d	-4.0004334
133	0x3f0d9e8b	0.5532004
134	0xbf66b915	-0.9012616
135	0x3d06564e	0.03279715
136	0x3f7d66dc	0.98985076
137	0xbbec8ae6	-0.0072187064
138	0xc08f237d	-4.473082
139	0xbe47de79	-0.1951846
140	0x3ebae199	0.36500242
141	0xbff6266b	-1.9230474
142	0x3ef0b8f7	0.47016117
143	0xbfd32d05	-1.6498114
144	0xc01cc913	-2.4497726
145	0xc036d09b	-2.8564823
146	0xbdb714f8	-0.08939546
147	0x3f824fd2	1.0180609
148	0xbe9f2f43	-0.31090745
149	0x3ed789d9	0.42097357
150	0xbf1025fd	-0.56307966
151	0xc080ccea	-4.025014
152	0xbfca40c7	-1.5801018
153	0xbc92c762	-0.017917339
154	0xc00681a1	-2.101662
155	0x3ee728a5	0.45148197
156	0xc0394fc3	-2.8954933
157	0x3f15cc07	0.58514446
158	0xbf58d045	-0.84692794
159	0x3f4726bd	0.77793485
160	0xc047df3c	-3.1230001
161	0xbfa1a9e0	-1.2629967
162	0xbfe5afc4	-1.7944264
163	0xbe9d3ba7	-0.30709574
164	0xbf1f832a	-0.62309515
165	0x3f26f46a	0.65216696
166	0x3ee49f4e	0.4465279
167	0xbf2df191	-0.67946726
168	0xbf28849a	-0.65827334
169	0xc00ce2f7	-2.2013528
170	0x3e80003c	0.2500018
171	0xbf65b69f	-0.8973178
172	0x3ec564dd	0.38553515
173	0xbf486f41	-0.7829476
174	0x3dd47fcc	0.10375938
175	0xc0b4d92e	-5.651511
176	0x3ea5e603	0.32402048
177	0xbe9753e1	-0.29556182
178	0xc04d29d9	-3.2056792
179	0x3f0f3adf	0.55949205
180	0x3f490d41	0.7853585
181	0x3f1200dc	0.5703256
182	0xbff46114	-1.9092126
183	0xbf176fbb	-0.5915486
184	0xbea478d1	-0.32123426
185	0xbeb7814f	-0.35840842
186	0x3f6998ad	0.9124859
187	0xbfe42b7e	-1.7825773
188	0xbee6b578	-0.45060325
189	0x3f1c078d	0.6094902
190	0xc023261b	-2.5492008
191	0xbfa5e373	-1.2960037
192	0x3f392b59	0.7233177
193	0x3d92d5ff	0.07169723
194	0xbe84e642	-0.25956923
195	0x3f91e741	1.1398698
196	0xbfebd254	-1.8423562
197	0xc03217a5	-2.7826931
198	0xbf4bfb11	-0.7967997
199	0x3f1098b2	0.56482995
200	0xc0320381	-2.7814639
201	0xbdece438	-0.11566967
202	0xbd1b9f87	-0.037993934
203	0xc0b1357a	-5.537778
204	0xbe59acfd	-0.21257396
205	0xbea9ee69	-0.33189705
206	0x3f470805	0.7774661
207	0xbf98d9a0	-1.1941414
208	0xc0985cf0	-4.761345
209	0x3d8950ec	0.06704888
210	0x3d63add3	0.055585694
211	0xbfbdc3ee	-1.4825418
212	0xbf633c61	-0.88764006
213	0xbea7ccc8	-0.32773423
214	0x3e9d904c	0.30774152
215	0xbe52ee55	-0.20598729
216	0xbf8df557	-1.1090497
217	0xbe3aa2a7	-0.1822611
218	0x3df92385	0.12164978
219	0xc01b244b	-2.4240901
220	0x3f064e15	0.52462894
221	0x3d790a83	0.06080104
222	0xbd58d9aa	-0.052941956
223	0xbfcb30c6	-1.587426
224	0x3f1ab680	0.6043472
225	0xbe247e2e	-0.16063759
226	0xbff10cdd	-1.883205
227	0x3f2d09a5	0.6759284
228	0xc03649ae	-2.848247
229	0xbee1362a	-0.43986636
230	0xbde3317c	-0.11093423
231	0x3f019250	0.5061388
232	0x3f975e85	1.182572
233	0x3d96fee6	0.07372837
234	0xc0b8e3d3	-5.7778106
235	0xc0a6462f	-5.1960673
236	0x3edcaf9e	0.43102735
237	0x3e8513a3	0.25991544
238	0xbf2f092b	-0.68373364
239	0xbf8e9401	-1.1138917
240	0x3d22b05b	0.039718967
241	0xbe277f93	-0.1635726
242	0xbf4f6a45	-0.8102153
243	0x3ee3037d	0.443386
244	0xc052b014	-3.291997
245	0x3e6e73ef	0.23286413
246	0x3f57c241	0.8428078
247	0xc08cbec3	-4.3982863
248	0xbe7e3fce	-0.24829027
249	0x3d2dc711	0.042426173
250	0xc06b1f2b	-3.6737773
251	0x3fa3506c	1.2758918
252	0xbeb456f5	-0.35222593
253	0x3e426cbd	0.18986793
254	0x3e0cd0f8	0.1375159
255	0xc04af60c	-3.1712675

l3.bias f4 [83]
0	0x3e0dbdf3	0.13841991
1	0xbdc48c15	-0.09597031
2	0x3f60cc33	0.87811583
3	0xbe7ad29f	-0.24494408
4	0x3dbf6dc8	0.09347111
5	0xbef7c485	-0.4839212
6	0x3de7918d	0.113070585
7	0xbe9cde97	-0.30638573
8	0xbe248a45	-0.1606837
9	0xbb47e99f	-0.003050424
10	0xbee0593a	-0.43818074
11	0x3e67d2ac	0.22638959
12	0xbf46fe82	-0.777321
13	0x3dd51e66	0.10406189
14	0xbe5ba020	-0.21447802
15	0xbedd7e97	-0.43260643
16	0xbec006ca	-0.3750518
17	0xbeb9be92	-0.36278206
18	0x3ce57460	0.028009593
19	0xbc8f3e0f	-0.017485647
20	0xbecaa30d	-0.39577523
21	0xbeee3c1e	-0.4653024
22	0xbea53324	-0.3226558
23	0xbf602237	-0.8755221
24	0x3dfad4bb	0.12247606
25	0x3eece62e	0.46269363
26	0x3eb8249f	0.3596544
27	0xbf9397c0	-1.1530685
28	0x3e6c0c22	0.23051503
29	0xbe470e44	-0.19439036
30	0x3d9c69fd	0.07637403
31	0xbea9a87e	-0.33136362
32	0x3e884f2e	0.2662291
33	0xbdffa34b	-0.124823175
34	0xbea1d34b	-0.31606516
35	0xbf81f4f3	-1.0152878
36	0x3dd1773a	0.10227819
37	0x3d7f1375	0.062274415
38	0x3e742ffb	0.23846428
39	0x3db0d2f3	0.08633985
40	0x3d85419a	0.06506653
41	0x3d6bbb74	0.057551816
42	0x3f151e40	0.5824928
43	0xbf81cda9	-1.0140887
44	0xbea43526	-0.320718
45	0x3f1a04a7	0.6016335
46	0xbf095c98	-0.5365691
47	0xbf2a64b2	-0.665599
48	0xbe6cd3b4	-0.23127633
49	0xbeb62275	-0.35573164
50	0x3eb29fb2	0.34887463
51	0x3e824948	0.25446534
52	0x3c206a94	0.009791035
53	0xbea56f55	-0.32311502
54	0x3ed878e6	0.42279738
55	0xbf116445	-0.56793624
56	0x3e9ee811	0.31036428
57	0x3d6920a7	0.056915905
58	0x3e46a5db	0.19399206
59	0xbd814154	-0.063112885
60	0xbddb23b4	-0.10700169
61	0xbf481a17	-0.7816481
62	0x3e0db8e4	0.13840061
63	0xbee4add7	-0.4466388
64	0xbff6b910	-1.9275227
65	0x3f0c5794	0.54821134
66	0x3de6fc9c	0.1127865
67	0x3e3af4dd	0.1825747
68	0x3ef041e5	0.46925274
69	0xbe6119e0	-0.21982527
70	0x3ece46ac	0.40288293
71	0xbcd2b763	-0.025722211
72	0xbcb45066	-0.022010993
73	0xbeca57fb	-0.3952025
74	0x3eb1a487	0.34695837
75	0xbe9a5a81	-0.30147174
76	0xbe94d294	-0.29066908
77	0x3f15ded6	0.58543146
78	0xbf93a60c	-1.1535048
79	0x3c82491a	0.015903998
80	0x3e398cfd	0.18120189
81	0xbfd67d3b	-1.6756967
82	0xbe6cda38	-0.23130119
